…
   "execution_count": 44,
   "metadata": {
    "colab": {},
    "colab_type": "code",
    "id": "1xJZ5glPPCRz"
   },
   "outputs": [
    {
     "name": "stdout",
     "output_type": "stream",
     "text": [
      "Model: \"inception_v3\"\n",
      "__________________________________________________________________________________________________\n",
      "Layer (type)                    Output Shape         Param #     Connected to                     \n",
      "==================================================================================================\n",
      "input_8 (InputLayer)            [(None, 150, 150, 3) 0                                            \n",
      "__________________________________________________________________________________________________\n",
      "conv2d_584 (Conv2D)             (None, 74, 74, 32)   864         input_8[0][0]                    \n",
      "__________________________________________________________________________________________________\n",
      "batch_normalization_584 (BatchN (None, 74, 74, 32)   96          conv2d_584[0][0]                 \n",
      "__________________________________________________________________________________________________\n",
      "activation_583 (Activation)     (None, 74, 74, 32)   0           batch_normalization_584[0][0]    \n",
      "__________________________________________________________________________________________________\n",
      "conv2d_585 (Conv2D)             (None, 72, 72, 32)   9216        activation_583[0][0]             \n",
      "__________________________________________________________________________________________________\n",
      "batch_normalization_585 (BatchN (None, 72, 72, 32)   96          conv2d_585[0][0]                 \n",
      "__________________________________________________________________________________________________\n",
      "activation_584 (Activation)     (None, 72, 72, 32)   0           batch_normalization_585[0][0]    \n",
      "__________________________________________________________________________________________________\n",
      "conv2d_586 (Conv2D)             (None, 72, 72, 64)   18432       activation_584[0][0]             \n",
      "__________________________________________________________________________________________________\n",
      "batch_normalization_586 (BatchN (None, 72, 72, 64)   192         conv2d_586[0][0]                 \n",
      "__________________________________________________________________________________________________\n",
      "activation_585 (Activation)     (None, 72, 72, 64)   0           batch_normalization_586[0][0]    \n",
      "__________________________________________________________________________________________________\n",
      "max_pooling2d_26 (MaxPooling2D) (None, 35, 35, 64)   0           activation_585[0][0]             \n",
      "__________________________________________________________________________________________________\n",
      "conv2d_587 (Conv2D)             (None, 35, 35, 80)   5120        max_pooling2d_26[0][0]           \n",
      "__________________________________________________________________________________________________\n",
      "batch_normalization_587 (BatchN (None, 35, 35, 80)   240         conv2d_587[0][0]                 \n",
      "__________________________________________________________________________________________________\n",
      "activation_586 (Activation)     (None, 35, 35, 80)   0           batch_normalization_587[0][0]    \n",
      "__________________________________________________________________________________________________\n",
      "conv2d_588 (Conv2D)             (None, 33, 33, 192)  138240      activation_586[0][0]             \n",
      "__________________________________________________________________________________________________\n",
      "batch_normalization_588 (BatchN (None, 33, 33, 192)  576         conv2d_588[0][0]                 \n",
      "__________________________________________________________________________________________________\n",
      "activation_587 (Activation)     (None, 33, 33, 192)  0           batch_normalization_588[0][0]    \n",
      "__________________________________________________________________________________________________\n",
      "max_pooling2d_27 (MaxPooling2D) (None, 16, 16, 192)  0           activation_587[0][0]             \n",
      "__________________________________________________________________________________________________\n",
      "conv2d_592 (Conv2D)             (None, 16, 16, 64)   12288       max_pooling2d_27[0][0]           \n",
      "__________________________________________________________________________________________________\n",
      "batch_normalization_592 (BatchN (None, 16, 16, 64)   192         conv2d_592[0][0]                 \n",
      "__________________________________________________________________________________________________\n",
      "activation_591 (Activation)     (None, 16, 16, 64)   0           batch_normalization_592[0][0]    \n",
      "__________________________________________________________________________________________________\n",
      "conv2d_590 (Conv2D)             (None, 16, 16, 48)   9216        max_pooling2d_27[0][0]           \n",
      "__________________________________________________________________________________________________\n",
      "conv2d_593 (Conv2D)             (None, 16, 16, 96)   55296       activation_591[0][0]             \n",
      "__________________________________________________________________________________________________\n",
      "batch_normalization_590 (BatchN (None, 16, 16, 48)   144         conv2d_590[0][0]                 \n",
      "__________________________________________________________________________________________________\n",
      "batch_normalization_593 (BatchN (None, 16, 16, 96)   288         conv2d_593[0][0]                 \n",
      "__________________________________________________________________________________________________\n",
      "activation_589 (Activation)     (None, 16, 16, 48)   0           batch_normalization_590[0][0]    \n",
      "__________________________________________________________________________________________________\n",
      "activation_592 (Activation)     (None, 16, 16, 96)   0           batch_normalization_593[0][0]    \n",
      "__________________________________________________________________________________________________\n",
      "average_pooling2d_56 (AveragePo (None, 16, 16, 192)  0           max_pooling2d_27[0][0]           \n",
      "__________________________________________________________________________________________________\n",
      "conv2d_589 (Conv2D)             (None, 16, 16, 64)   12288       max_pooling2d_27[0][0]           \n",
      "__________________________________________________________________________________________________\n",
      "conv2d_591 (Conv2D)             (None, 16, 16, 64)   76800       activation_589[0][0]             \n",
      "__________________________________________________________________________________________________\n",
      "conv2d_594 (Conv2D)             (None, 16, 16, 96)   82944       activation_592[0][0]             \n",
      "__________________________________________________________________________________________________\n",
      "conv2d_595 (Conv2D)             (None, 16, 16, 32)   6144        average_pooling2d_56[0][0]       \n",
      "__________________________________________________________________________________________________\n",
      "batch_normalization_589 (BatchN (None, 16, 16, 64)   192         conv2d_589[0][0]                 \n",
      "__________________________________________________________________________________________________\n",
      "batch_normalization_591 (BatchN (None, 16, 16, 64)   192         conv2d_591[0][0]                 \n",
      "__________________________________________________________________________________________________\n",
      "batch_normalization_594 (BatchN (None, 16, 16, 96)   288         conv2d_594[0][0]                 \n",
      "__________________________________________________________________________________________________\n",
      "batch_normalization_595 (BatchN (None, 16, 16, 32)   96          conv2d_595[0][0]                 \n",
      "__________________________________________________________________________________________________\n",
      "activation_588 (Activation)     (None, 16, 16, 64)   0           batch_normalization_589[0][0]    \n",
      "__________________________________________________________________________________________________\n",
      "activation_590 (Activation)     (None, 16, 16, 64)   0           batch_normalization_591[0][0]    \n",
      "__________________________________________________________________________________________________\n",
      "activation_593 (Activation)     (None, 16, 16, 96)   0           batch_normalization_594[0][0]    \n",
      "__________________________________________________________________________________________________\n",
      "activation_594 (Activation)     (None, 16, 16, 32)   0           batch_normalization_595[0][0]    \n",
      "__________________________________________________________________________________________________\n",
      "mixed0 (Concatenate)            (None, 16, 16, 256)  0           activation_588[0][0]             \n",
      "                                                                 activation_590[0][0]             \n",
      "                                                                 activation_593[0][0]             \n",
      "                                                                 activation_594[0][0]             \n",
      "__________________________________________________________________________________________________\n",
      "conv2d_599 (Conv2D)             (None, 16, 16, 64)   16384       mixed0[0][0]                     \n",
      "__________________________________________________________________________________________________\n",
      "batch_normalization_599 (BatchN (None, 16, 16, 64)   192         conv2d_599[0][0]                 \n",
      "__________________________________________________________________________________________________\n",
      "activation_598 (Activation)     (None, 16, 16, 64)   0           batch_normalization_599[0][0]    \n",
      "__________________________________________________________________________________________________\n",
      "conv2d_597 (Conv2D)             (None, 16, 16, 48)   12288       mixed0[0][0]                     \n",
      "__________________________________________________________________________________________________\n",
      "conv2d_600 (Conv2D)             (None, 16, 16, 96)   55296       activation_598[0][0]             \n",
      "__________________________________________________________________________________________________\n",
      "batch_normalization_597 (BatchN (None, 16, 16, 48)   144         conv2d_597[0][0]                 \n",
      "__________________________________________________________________________________________________\n",
      "batch_normalization_600 (BatchN (None, 16, 16, 96)   288         conv2d_600[0][0]                 \n",
      "__________________________________________________________________________________________________\n",
      "activation_596 (Activation)     (None, 16, 16, 48)   0           batch_normalization_597[0][0]    \n",
      "__________________________________________________________________________________________________\n",
      "activation_599 (Activation)     (None, 16, 16, 96)   0           batch_normalization_600[0][0]    \n",
      "__________________________________________________________________________________________________\n",
      "average_pooling2d_57 (AveragePo (None, 16, 16, 256)  0           mixed0[0][0]                     \n",
      "__________________________________________________________________________________________________\n",
      "conv2d_596 (Conv2D)             (None, 16, 16, 64)   16384       mixed0[0][0]                     \n",
      "__________________________________________________________________________________________________\n",
      "conv2d_598 (Conv2D)             (None, 16, 16, 64)   76800       activation_596[0][0]             \n",
      "__________________________________________________________________________________________________\n",
      "conv2d_601 (Conv2D)             (None, 16, 16, 96)   82944       activation_599[0][0]             \n",
      "__________________________________________________________________________________________________\n",
      "conv2d_602 (Conv2D)             (None, 16, 16, 64)   16384       average_pooling2d_57[0][0]       \n",
      "__________________________________________________________________________________________________\n",
      "batch_normalization_596 (BatchN (None, 16, 16, 64)   192         conv2d_596[0][0]                 \n",
      "__________________________________________________________________________________________________\n",
      "batch_normalization_598 (BatchN (None, 16, 16, 64)   192         conv2d_598[0][0]                 \n",
      "__________________________________________________________________________________________________\n",
      "batch_normalization_601 (BatchN (None, 16, 16, 96)   288         conv2d_601[0][0]                 \n",
      "__________________________________________________________________________________________________\n",
      "batch_normalization_602 (BatchN (None, 16, 16, 64)   192         conv2d_602[0][0]                 \n",
      "__________________________________________________________________________________________________\n",
      "activation_595 (Activation)     (None, 16, 16, 64)   0           batch_normalization_596[0][0]    \n",
      "__________________________________________________________________________________________________\n",
      "activation_597 (Activation)     (None, 16, 16, 64)   0           batch_normalization_598[0][0]    \n",
      "__________________________________________________________________________________________________\n",
      "activation_600 (Activation)     (None, 16, 16, 96)   0           batch_normalization_601[0][0]    \n",
      "__________________________________________________________________________________________________\n",
      "activation_601 (Activation)     (None, 16, 16, 64)   0           batch_normalization_602[0][0]    \n",
      "__________________________________________________________________________________________________\n",
      "mixed1 (Concatenate)            (None, 16, 16, 288)  0           activation_595[0][0]             \n",
      "                                                                 activation_597[0][0]             \n",
      "                                                                 activation_600[0][0]             \n",
      "                                                                 activation_601[0][0]             \n",
      "__________________________________________________________________________________________________\n",
      "conv2d_606 (Conv2D)             (None, 16, 16, 64)   18432       mixed1[0][0]                     \n",
      "__________________________________________________________________________________________________\n",
      "batch_normalization_606 (BatchN (None, 16, 16, 64)   192         conv2d_606[0][0]                 \n",
      "__________________________________________________________________________________________________\n",
      "activation_605 (Activation)     (None, 16, 16, 64)   0           batch_normalization_606[0][0]    \n",
      "__________________________________________________________________________________________________\n",
      "conv2d_604 (Conv2D)             (None, 16, 16, 48)   13824       mixed1[0][0]                     \n",
      "__________________________________________________________________________________________________\n",
      "conv2d_607 (Conv2D)             (None, 16, 16, 96)   55296       activation_605[0][0]             \n",
      "__________________________________________________________________________________________________\n",
      "batch_normalization_604 (BatchN (None, 16, 16, 48)   144         conv2d_604[0][0]                 \n",
      "__________________________________________________________________________________________________\n",
      "batch_normalization_607 (BatchN (None, 16, 16, 96)   288         conv2d_607[0][0]                 \n",
      "__________________________________________________________________________________________________\n",
      "activation_603 (Activation)     (None, 16, 16, 48)   0           batch_normalization_604[0][0]    \n",
      "__________________________________________________________________________________________________\n",
      "activation_606 (Activation)     (None, 16, 16, 96)   0           batch_normalization_607[0][0]    \n",
      "__________________________________________________________________________________________________\n",
      "average_pooling2d_58 (AveragePo (None, 16, 16, 288)  0           mixed1[0][0]                     \n",
      "__________________________________________________________________________________________________\n",
      "conv2d_603 (Conv2D)             (None, 16, 16, 64)   18432       mixed1[0][0]                     \n",
      "__________________________________________________________________________________________________\n",
      "conv2d_605 (Conv2D)             (None, 16, 16, 64)   76800       activation_603[0][0]             \n",
      "__________________________________________________________________________________________________\n",
      "conv2d_608 (Conv2D)             (None, 16, 16, 96)   82944       activation_606[0][0]             \n",
      "__________________________________________________________________________________________________\n",
      "conv2d_609 (Conv2D)             (None, 16, 16, 64)   18432       average_pooling2d_58[0][0]       \n",
      "__________________________________________________________________________________________________\n",
      "batch_normalization_603 (BatchN (None, 16, 16, 64)   192         conv2d_603[0][0]                 \n",
      "__________________________________________________________________________________________________\n",
      "batch_normalization_605 (BatchN (None, 16, 16, 64)   192         conv2d_605[0][0]                 \n",
      "__________________________________________________________________________________________________\n",
      "batch_normalization_608 (BatchN (None, 16, 16, 96)   288         conv2d_608[0][0]                 \n",
      "__________________________________________________________________________________________________\n",
      "batch_normalization_609 (BatchN (None, 16, 16, 64)   192         conv2d_609[0][0]                 \n",
      "__________________________________________________________________________________________________\n",
      "activation_602 (Activation)     (None, 16, 16, 64)   0           batch_normalization_603[0][0]    \n",
      "__________________________________________________________________________________________________\n",
      "activation_604 (Activation)     (None, 16, 16, 64)   0           batch_normalization_605[0][0]    \n",
      "__________________________________________________________________________________________________\n",
      "activation_607 (Activation)     (None, 16, 16, 96)   0           batch_normalization_608[0][0]    \n",
      "__________________________________________________________________________________________________\n",
      "activation_608 (Activation)     (None, 16, 16, 64)   0           batch_normalization_609[0][0]    \n",
      "__________________________________________________________________________________________________\n",
      "mixed2 (Concatenate)            (None, 16, 16, 288)  0           activation_602[0][0]             \n",
      "                                                                 activation_604[0][0]             \n",
      "                                                                 activation_607[0][0]             \n",
      "                                                                 activation_608[0][0]             \n",
      "__________________________________________________________________________________________________\n",
      "conv2d_611 (Conv2D)             (None, 16, 16, 64)   18432       mixed2[0][0]                     \n",
      "__________________________________________________________________________________________________\n",
      "batch_normalization_611 (BatchN (None, 16, 16, 64)   192         conv2d_611[0][0]                 \n",
      "__________________________________________________________________________________________________\n",
      "activation_610 (Activation)     (None, 16, 16, 64)   0           batch_normalization_611[0][0]    \n",
      "__________________________________________________________________________________________________\n",
      "conv2d_612 (Conv2D)             (None, 16, 16, 96)   55296       activation_610[0][0]             \n",
      "__________________________________________________________________________________________________\n",
      "batch_normalization_612 (BatchN (None, 16, 16, 96)   288         conv2d_612[0][0]                 \n",
      "__________________________________________________________________________________________________\n",
      "activation_611 (Activation)     (None, 16, 16, 96)   0           batch_normalization_612[0][0]    \n",
      "__________________________________________________________________________________________________\n",
      "conv2d_610 (Conv2D)             (None, 7, 7, 384)    995328      mixed2[0][0]                     \n",
      "__________________________________________________________________________________________________\n",
      "conv2d_613 (Conv2D)             (None, 7, 7, 96)     82944       activation_611[0][0]             \n",
      "__________________________________________________________________________________________________\n",
      "batch_normalization_610 (BatchN (None, 7, 7, 384)    1152        conv2d_610[0][0]                 \n",
      "__________________________________________________________________________________________________\n",
      "batch_normalization_613 (BatchN (None, 7, 7, 96)     288         conv2d_613[0][0]                 \n",
      "__________________________________________________________________________________________________\n",
      "activation_609 (Activation)     (None, 7, 7, 384)    0           batch_normalization_610[0][0]    \n",
      "__________________________________________________________________________________________________\n",
      "activation_612 (Activation)     (None, 7, 7, 96)     0           batch_normalization_613[0][0]    \n",
      "__________________________________________________________________________________________________\n",
      "max_pooling2d_28 (MaxPooling2D) (None, 7, 7, 288)    0           mixed2[0][0]                     \n",
      "__________________________________________________________________________________________________\n",
      "mixed3 (Concatenate)            (None, 7, 7, 768)    0           activation_609[0][0]             \n",
      "                                                                 activation_612[0][0]             \n",
      "                                                                 max_pooling2d_28[0][0]           \n",
      "__________________________________________________________________________________________________\n",
      "conv2d_618 (Conv2D)             (None, 7, 7, 128)    98304       mixed3[0][0]                     \n",
      "__________________________________________________________________________________________________\n",
      "batch_normalization_618 (BatchN (None, 7, 7, 128)    384         conv2d_618[0][0]                 \n",
      "__________________________________________________________________________________________________\n",
      "activation_617 (Activation)     (None, 7, 7, 128)    0           batch_normalization_618[0][0]    \n",
      "__________________________________________________________________________________________________\n",
      "conv2d_619 (Conv2D)             (None, 7, 7, 128)    114688      activation_617[0][0]             \n",
      "__________________________________________________________________________________________________\n",
      "batch_normalization_619 (BatchN (None, 7, 7, 128)    384         conv2d_619[0][0]                 \n",
      "__________________________________________________________________________________________________\n",
      "activation_618 (Activation)     (None, 7, 7, 128)    0           batch_normalization_619[0][0]    \n",
      "__________________________________________________________________________________________________\n",
      "conv2d_615 (Conv2D)             (None, 7, 7, 128)    98304       mixed3[0][0]                     \n",
      "__________________________________________________________________________________________________\n",
      "conv2d_620 (Conv2D)             (None, 7, 7, 128)    114688      activation_618[0][0]             \n",
      "__________________________________________________________________________________________________\n",
      "batch_normalization_615 (BatchN (None, 7, 7, 128)    384         conv2d_615[0][0]                 \n",
      "__________________________________________________________________________________________________\n",
      "batch_normalization_620 (BatchN (None, 7, 7, 128)    384         conv2d_620[0][0]                 \n",
      "__________________________________________________________________________________________________\n",
      "activation_614 (Activation)     (None, 7, 7, 128)    0           batch_normalization_615[0][0]    \n",
      "__________________________________________________________________________________________________\n",
      "activation_619 (Activation)     (None, 7, 7, 128)    0           batch_normalization_620[0][0]    \n",
      "__________________________________________________________________________________________________\n",
      "conv2d_616 (Conv2D)             (None, 7, 7, 128)    114688      activation_614[0][0]             \n",
      "__________________________________________________________________________________________________\n",
      "conv2d_621 (Conv2D)             (None, 7, 7, 128)    114688      activation_619[0][0]             \n",
      "__________________________________________________________________________________________________\n",
      "batch_normalization_616 (BatchN (None, 7, 7, 128)    384         conv2d_616[0][0]                 \n",
      "__________________________________________________________________________________________________\n",
      "batch_normalization_621 (BatchN (None, 7, 7, 128)    384         conv2d_621[0][0]                 \n",
      "__________________________________________________________________________________________________\n",
      "activation_615 (Activation)     (None, 7, 7, 128)    0           batch_normalization_616[0][0]    \n",
      "__________________________________________________________________________________________________\n",
      "activation_620 (Activation)     (None, 7, 7, 128)    0           batch_normalization_621[0][0]    \n",
      "__________________________________________________________________________________________________\n",
      "average_pooling2d_59 (AveragePo (None, 7, 7, 768)    0           mixed3[0][0]                     \n",
      "__________________________________________________________________________________________________\n",
      "conv2d_614 (Conv2D)             (None, 7, 7, 192)    147456      mixed3[0][0]                     \n",
      "__________________________________________________________________________________________________\n",
      "conv2d_617 (Conv2D)             (None, 7, 7, 192)    172032      activation_615[0][0]             \n",
      "__________________________________________________________________________________________________\n",
      "conv2d_622 (Conv2D)             (None, 7, 7, 192)    172032      activation_620[0][0]             \n",
      "__________________________________________________________________________________________________\n",
      "conv2d_623 (Conv2D)             (None, 7, 7, 192)    147456      average_pooling2d_59[0][0]       \n",
      "__________________________________________________________________________________________________\n",
      "batch_normalization_614 (BatchN (None, 7, 7, 192)    576         conv2d_614[0][0]                 \n",
      "__________________________________________________________________________________________________\n",
      "batch_normalization_617 (BatchN (None, 7, 7, 192)    576         conv2d_617[0][0]                 \n",
      "__________________________________________________________________________________________________\n",
      "batch_normalization_622 (BatchN (None, 7, 7, 192)    576         conv2d_622[0][0]                 \n",
      "__________________________________________________________________________________________________\n",
      "batch_normalization_623 (BatchN (None, 7, 7, 192)    576         conv2d_623[0][0]                 \n",
      "__________________________________________________________________________________________________\n",
      "activation_613 (Activation)     (None, 7, 7, 192)    0           batch_normalization_614[0][0]    \n",
      "__________________________________________________________________________________________________\n",
      "activation_616 (Activation)     (None, 7, 7, 192)    0           batch_normalization_617[0][0]    \n",
      "__________________________________________________________________________________________________\n",
      "activation_621 (Activation)     (None, 7, 7, 192)    0           batch_normalization_622[0][0]    \n",
      "__________________________________________________________________________________________________\n",
      "activation_622 (Activation)     (None, 7, 7, 192)    0           batch_normalization_623[0][0]    \n",
      "__________________________________________________________________________________________________\n",
      "mixed4 (Concatenate)            (None, 7, 7, 768)    0           activation_613[0][0]             \n",
      "                                                                 activation_616[0][0]             \n",
      "                                                                 activation_621[0][0]             \n",
      "                                                                 activation_622[0][0]             \n",
      "__________________________________________________________________________________________________\n",
      "conv2d_628 (Conv2D)             (None, 7, 7, 160)    122880      mixed4[0][0]                     \n",
      "__________________________________________________________________________________________________\n",
      "batch_normalization_628 (BatchN (None, 7, 7, 160)    480         conv2d_628[0][0]                 \n",
      "__________________________________________________________________________________________________\n",
      "activation_627 (Activation)     (None, 7, 7, 160)    0           batch_normalization_628[0][0]    \n",
      "__________________________________________________________________________________________________\n",
      "conv2d_629 (Conv2D)             (None, 7, 7, 160)    179200      activation_627[0][0]             \n",
      "__________________________________________________________________________________________________\n",
      "batch_normalization_629 (BatchN (None, 7, 7, 160)    480         conv2d_629[0][0]                 \n",
      "__________________________________________________________________________________________________\n",
      "activation_628 (Activation)     (None, 7, 7, 160)    0           batch_normalization_629[0][0]    \n",
      "__________________________________________________________________________________________________\n",
      "conv2d_625 (Conv2D)             (None, 7, 7, 160)    122880      mixed4[0][0]                     \n",
      "__________________________________________________________________________________________________\n",
      "conv2d_630 (Conv2D)             (None, 7, 7, 160)    179200      activation_628[0][0]             \n",
      "__________________________________________________________________________________________________\n",
      "batch_normalization_625 (BatchN (None, 7, 7, 160)    480         conv2d_625[0][0]                 \n",
      "__________________________________________________________________________________________________\n",
      "batch_normalization_630 (BatchN (None, 7, 7, 160)    480         conv2d_630[0][0]                 \n",
      "__________________________________________________________________________________________________\n",
      "activation_624 (Activation)     (None, 7, 7, 160)    0           batch_normalization_625[0][0]    \n",
      "__________________________________________________________________________________________________\n",
      "activation_629 (Activation)     (None, 7, 7, 160)    0           batch_normalization_630[0][0]    \n",
      "__________________________________________________________________________________________________\n",
      "conv2d_626 (Conv2D)             (None, 7, 7, 160)    179200      activation_624[0][0]             \n",
      "__________________________________________________________________________________________________\n",
      "conv2d_631 (Conv2D)             (None, 7, 7, 160)    179200      activation_629[0][0]             \n",
      "__________________________________________________________________________________________________\n",
      "batch_normalization_626 (BatchN (None, 7, 7, 160)    480         conv2d_626[0][0]                 \n",
      "__________________________________________________________________________________________________\n",
      "batch_normalization_631 (BatchN (None, 7, 7, 160)    480         conv2d_631[0][0]                 \n",
      "__________________________________________________________________________________________________\n",
      "activation_625 (Activation)     (None, 7, 7, 160)    0           batch_normalization_626[0][0]    \n",
      "__________________________________________________________________________________________________\n",
      "activation_630 (Activation)     (None, 7, 7, 160)    0           batch_normalization_631[0][0]    \n",
      "__________________________________________________________________________________________________\n",
      "average_pooling2d_60 (AveragePo (None, 7, 7, 768)    0           mixed4[0][0]                     \n",
      "__________________________________________________________________________________________________\n",
      "conv2d_624 (Conv2D)             (None, 7, 7, 192)    147456      mixed4[0][0]                     \n",
      "__________________________________________________________________________________________________\n",
      "conv2d_627 (Conv2D)             (None, 7, 7, 192)    215040      activation_625[0][0]             \n",
      "__________________________________________________________________________________________________\n",
      "conv2d_632 (Conv2D)             (None, 7, 7, 192)    215040      activation_630[0][0]             \n",
      "__________________________________________________________________________________________________\n",
      "conv2d_633 (Conv2D)             (None, 7, 7, 192)    147456      average_pooling2d_60[0][0]       \n",
      "__________________________________________________________________________________________________\n",
      "batch_normalization_624 (BatchN (None, 7, 7, 192)    576         conv2d_624[0][0]                 \n",
      "__________________________________________________________________________________________________\n",
      "batch_normalization_627 (BatchN (None, 7, 7, 192)    576         conv2d_627[0][0]                 \n",
      "__________________________________________________________________________________________________\n",
      "batch_normalization_632 (BatchN (None, 7, 7, 192)    576         conv2d_632[0][0]                 \n",
      "__________________________________________________________________________________________________\n",
      "batch_normalization_633 (BatchN (None, 7, 7, 192)    576         conv2d_633[0][0]                 \n",
      "__________________________________________________________________________________________________\n",
      "activation_623 (Activation)     (None, 7, 7, 192)    0           batch_normalization_624[0][0]    \n",
      "__________________________________________________________________________________________________\n",
      "activation_626 (Activation)     (None, 7, 7, 192)    0           batch_normalization_627[0][0]    \n",
      "__________________________________________________________________________________________________\n",
      "activation_631 (Activation)     (None, 7, 7, 192)    0           batch_normalization_632[0][0]    \n",
      "__________________________________________________________________________________________________\n",
      "activation_632 (Activation)     (None, 7, 7, 192)    0           batch_normalization_633[0][0]    \n",
      "__________________________________________________________________________________________________\n",
      "mixed5 (Concatenate)            (None, 7, 7, 768)    0           activation_623[0][0]             \n",
      "                                                                 activation_626[0][0]             \n",
      "                                                                 activation_631[0][0]             \n",
      "                                                                 activation_632[0][0]             \n",
      "__________________________________________________________________________________________________\n",
      "conv2d_638 (Conv2D)             (None, 7, 7, 160)    122880      mixed5[0][0]                     \n",
      "__________________________________________________________________________________________________\n",
      "batch_normalization_638 (BatchN (None, 7, 7, 160)    480         conv2d_638[0][0]                 \n",
      "__________________________________________________________________________________________________\n",
      "activation_637 (Activation)     (None, 7, 7, 160)    0           batch_normalization_638[0][0]    \n",
      "__________________________________________________________________________________________________\n",
      "conv2d_639 (Conv2D)             (None, 7, 7, 160)    179200      activation_637[0][0]             \n",
      "__________________________________________________________________________________________________\n",
      "batch_normalization_639 (BatchN (None, 7, 7, 160)    480         conv2d_639[0][0]                 \n",
      "__________________________________________________________________________________________________\n",
      "activation_638 (Activation)     (None, 7, 7, 160)    0           batch_normalization_639[0][0]    \n",
      "__________________________________________________________________________________________________\n",
      "conv2d_635 (Conv2D)             (None, 7, 7, 160)    122880      mixed5[0][0]                     \n",
      "__________________________________________________________________________________________________\n",
      "conv2d_640 (Conv2D)             (None, 7, 7, 160)    179200      activation_638[0][0]             \n",
      "__________________________________________________________________________________________________\n",
      "batch_normalization_635 (BatchN (None, 7, 7, 160)    480         conv2d_635[0][0]                 \n",
      "__________________________________________________________________________________________________\n",
      "batch_normalization_640 (BatchN (None, 7, 7, 160)    480         conv2d_640[0][0]                 \n",
      "__________________________________________________________________________________________________\n",
      "activation_634 (Activation)     (None, 7, 7, 160)    0           batch_normalization_635[0][0]    \n",
      "__________________________________________________________________________________________________\n",
      "activation_639 (Activation)     (None, 7, 7, 160)    0           batch_normalization_640[0][0]    \n",
      "__________________________________________________________________________________________________\n",
      "conv2d_636 (Conv2D)             (None, 7, 7, 160)    179200      activation_634[0][0]             \n",
      "__________________________________________________________________________________________________\n",
      "conv2d_641 (Conv2D)             (None, 7, 7, 160)    179200      activation_639[0][0]             \n",
      "__________________________________________________________________________________________________\n",
      "batch_normalization_636 (BatchN (None, 7, 7, 160)    480         conv2d_636[0][0]                 \n",
      "__________________________________________________________________________________________________\n",
      "batch_normalization_641 (BatchN (None, 7, 7, 160)    480         conv2d_641[0][0]                 \n",
      "__________________________________________________________________________________________________\n",
      "activation_635 (Activation)     (None, 7, 7, 160)    0           batch_normalization_636[0][0]    \n",
      "__________________________________________________________________________________________________\n",
      "activation_640 (Activation)     (None, 7, 7, 160)    0           batch_normalization_641[0][0]    \n",
      "__________________________________________________________________________________________________\n",
      "average_pooling2d_61 (AveragePo (None, 7, 7, 768)    0           mixed5[0][0]                     \n",
      "__________________________________________________________________________________________________\n",
      "conv2d_634 (Conv2D)             (None, 7, 7, 192)    147456      mixed5[0][0]                     \n",
      "__________________________________________________________________________________________________\n",
      "conv2d_637 (Conv2D)             (None, 7, 7, 192)    215040      activation_635[0][0]             \n",
      "__________________________________________________________________________________________________\n",
      "conv2d_642 (Conv2D)             (None, 7, 7, 192)    215040      activation_640[0][0]             \n",
      "__________________________________________________________________________________________________\n",
      "conv2d_643 (Conv2D)             (None, 7, 7, 192)    147456      average_pooling2d_61[0][0]       \n",
      "__________________________________________________________________________________________________\n",
      "batch_normalization_634 (BatchN (None, 7, 7, 192)    576         conv2d_634[0][0]                 \n",
      "__________________________________________________________________________________________________\n",
      "batch_normalization_637 (BatchN (None, 7, 7, 192)    576         conv2d_637[0][0]                 \n",
      "__________________________________________________________________________________________________\n",
      "batch_normalization_642 (BatchN (None, 7, 7, 192)    576         conv2d_642[0][0]                 \n",
      "__________________________________________________________________________________________________\n",
      "batch_normalization_643 (BatchN (None, 7, 7, 192)    576         conv2d_643[0][0]                 \n",
      "__________________________________________________________________________________________________\n",
      "activation_633 (Activation)     (None, 7, 7, 192)    0           batch_normalization_634[0][0]    \n",
      "__________________________________________________________________________________________________\n",
      "activation_636 (Activation)     (None, 7, 7, 192)    0           batch_normalization_637[0][0]    \n",
      "__________________________________________________________________________________________________\n",
      "activation_641 (Activation)     (None, 7, 7, 192)    0           batch_normalization_642[0][0]    \n",
      "__________________________________________________________________________________________________\n",
      "activation_642 (Activation)     (None, 7, 7, 192)    0           batch_normalization_643[0][0]    \n",
      "__________________________________________________________________________________________________\n",
      "mixed6 (Concatenate)            (None, 7, 7, 768)    0           activation_633[0][0]             \n",
      "                                                                 activation_636[0][0]             \n",
      "                                                                 activation_641[0][0]             \n",
      "                                                                 activation_642[0][0]             \n",
      "__________________________________________________________________________________________________\n",
      "conv2d_648 (Conv2D)             (None, 7, 7, 192)    147456      mixed6[0][0]                     \n",
      "__________________________________________________________________________________________________\n",
      "batch_normalization_648 (BatchN (None, 7, 7, 192)    576         conv2d_648[0][0]                 \n",
      "__________________________________________________________________________________________________\n",
      "activation_647 (Activation)     (None, 7, 7, 192)    0           batch_normalization_648[0][0]    \n",
      "__________________________________________________________________________________________________\n",
      "conv2d_649 (Conv2D)             (None, 7, 7, 192)    258048      activation_647[0][0]             \n",
      "__________________________________________________________________________________________________\n",
      "batch_normalization_649 (BatchN (None, 7, 7, 192)    576         conv2d_649[0][0]                 \n",
      "__________________________________________________________________________________________________\n",
      "activation_648 (Activation)     (None, 7, 7, 192)    0           batch_normalization_649[0][0]    \n",
      "__________________________________________________________________________________________________\n",
      "conv2d_645 (Conv2D)             (None, 7, 7, 192)    147456      mixed6[0][0]                     \n",
      "__________________________________________________________________________________________________\n",
      "conv2d_650 (Conv2D)             (None, 7, 7, 192)    258048      activation_648[0][0]             \n",
      "__________________________________________________________________________________________________\n",
      "batch_normalization_645 (BatchN (None, 7, 7, 192)    576         conv2d_645[0][0]                 \n",
      "__________________________________________________________________________________________________\n",
      "batch_normalization_650 (BatchN (None, 7, 7, 192)    576         conv2d_650[0][0]                 \n",
      "__________________________________________________________________________________________________\n",
      "activation_644 (Activation)     (None, 7, 7, 192)    0           batch_normalization_645[0][0]    \n",
      "__________________________________________________________________________________________________\n",
      "activation_649 (Activation)     (None, 7, 7, 192)    0           batch_normalization_650[0][0]    \n",
      "__________________________________________________________________________________________________\n",
      "conv2d_646 (Conv2D)             (None, 7, 7, 192)    258048      activation_644[0][0]             \n",
      "__________________________________________________________________________________________________\n",
      "conv2d_651 (Conv2D)             (None, 7, 7, 192)    258048      activation_649[0][0]             \n",
      "__________________________________________________________________________________________________\n",
      "batch_normalization_646 (BatchN (None, 7, 7, 192)    576         conv2d_646[0][0]                 \n",
      "__________________________________________________________________________________________________\n",
      "batch_normalization_651 (BatchN (None, 7, 7, 192)    576         conv2d_651[0][0]                 \n",
      "__________________________________________________________________________________________________\n",
      "activation_645 (Activation)     (None, 7, 7, 192)    0           batch_normalization_646[0][0]    \n",
      "__________________________________________________________________________________________________\n",
      "activation_650 (Activation)     (None, 7, 7, 192)    0           batch_normalization_651[0][0]    \n",
      "__________________________________________________________________________________________________\n",
      "average_pooling2d_62 (AveragePo (None, 7, 7, 768)    0           mixed6[0][0]                     \n",
      "__________________________________________________________________________________________________\n",
      "conv2d_644 (Conv2D)             (None, 7, 7, 192)    147456      mixed6[0][0]                     \n",
      "__________________________________________________________________________________________________\n",
      "conv2d_647 (Conv2D)             (None, 7, 7, 192)    258048      activation_645[0][0]             \n",
      "__________________________________________________________________________________________________\n",
      "conv2d_652 (Conv2D)             (None, 7, 7, 192)    258048      activation_650[0][0]             \n",
      "__________________________________________________________________________________________________\n",
      "conv2d_653 (Conv2D)             (None, 7, 7, 192)    147456      average_pooling2d_62[0][0]       \n",
      "__________________________________________________________________________________________________\n",
      "batch_normalization_644 (BatchN (None, 7, 7, 192)    576         conv2d_644[0][0]                 \n",
      "__________________________________________________________________________________________________\n",
      "batch_normalization_647 (BatchN (None, 7, 7, 192)    576         conv2d_647[0][0]                 \n",
      "__________________________________________________________________________________________________\n",
      "batch_normalization_652 (BatchN (None, 7, 7, 192)    576         conv2d_652[0][0]                 \n",
      "__________________________________________________________________________________________________\n",
      "batch_normalization_653 (BatchN (None, 7, 7, 192)    576         conv2d_653[0][0]                 \n",
      "__________________________________________________________________________________________________\n",
      "activation_643 (Activation)     (None, 7, 7, 192)    0           batch_normalization_644[0][0]    \n",
      "__________________________________________________________________________________________________\n",
      "activation_646 (Activation)     (None, 7, 7, 192)    0           batch_normalization_647[0][0]    \n",
      "__________________________________________________________________________________________________\n",
      "activation_651 (Activation)     (None, 7, 7, 192)    0           batch_normalization_652[0][0]    \n",
      "__________________________________________________________________________________________________\n",
      "activation_652 (Activation)     (None, 7, 7, 192)    0           batch_normalization_653[0][0]    \n",
      "__________________________________________________________________________________________________\n",
      "mixed7 (Concatenate)            (None, 7, 7, 768)    0           activation_643[0][0]             \n",
      "                                                                 activation_646[0][0]             \n",
      "                                                                 activation_651[0][0]             \n",
      "                                                                 activation_652[0][0]             \n",
      "__________________________________________________________________________________________________\n",
      "conv2d_656 (Conv2D)             (None, 7, 7, 192)    147456      mixed7[0][0]                     \n",
      "__________________________________________________________________________________________________\n",
      "batch_normalization_656 (BatchN (None, 7, 7, 192)    576         conv2d_656[0][0]                 \n",
      "__________________________________________________________________________________________________\n",
      "activation_655 (Activation)     (None, 7, 7, 192)    0           batch_normalization_656[0][0]    \n",
      "__________________________________________________________________________________________________\n",
      "conv2d_657 (Conv2D)             (None, 7, 7, 192)    258048      activation_655[0][0]             \n",
      "__________________________________________________________________________________________________\n",
      "batch_normalization_657 (BatchN (None, 7, 7, 192)    576         conv2d_657[0][0]                 \n",
      "__________________________________________________________________________________________________\n",
      "activation_656 (Activation)     (None, 7, 7, 192)    0           batch_normalization_657[0][0]    \n",
      "__________________________________________________________________________________________________\n",
      "conv2d_654 (Conv2D)             (None, 7, 7, 192)    147456      mixed7[0][0]                     \n",
      "__________________________________________________________________________________________________\n",
      "conv2d_658 (Conv2D)             (None, 7, 7, 192)    258048      activation_656[0][0]             \n",
      "__________________________________________________________________________________________________\n",
      "batch_normalization_654 (BatchN (None, 7, 7, 192)    576         conv2d_654[0][0]                 \n",
      "__________________________________________________________________________________________________\n",
      "batch_normalization_658 (BatchN (None, 7, 7, 192)    576         conv2d_658[0][0]                 \n",
      "__________________________________________________________________________________________________\n",
      "activation_653 (Activation)     (None, 7, 7, 192)    0           batch_normalization_654[0][0]    \n",
      "__________________________________________________________________________________________________\n",
      "activation_657 (Activation)     (None, 7, 7, 192)    0           batch_normalization_658[0][0]    \n",
      "__________________________________________________________________________________________________\n",
      "conv2d_655 (Conv2D)             (None, 3, 3, 320)    552960      activation_653[0][0]             \n",
      "__________________________________________________________________________________________________\n",
      "conv2d_659 (Conv2D)             (None, 3, 3, 192)    331776      activation_657[0][0]             \n",
      "__________________________________________________________________________________________________\n",
      "batch_normalization_655 (BatchN (None, 3, 3, 320)    960         conv2d_655[0][0]                 \n",
      "__________________________________________________________________________________________________\n",
      "batch_normalization_659 (BatchN (None, 3, 3, 192)    576         conv2d_659[0][0]                 \n",
      "__________________________________________________________________________________________________\n",
      "activation_654 (Activation)     (None, 3, 3, 320)    0           batch_normalization_655[0][0]    \n",
      "__________________________________________________________________________________________________\n",
      "activation_658 (Activation)     (None, 3, 3, 192)    0           batch_normalization_659[0][0]    \n",
      "__________________________________________________________________________________________________\n",
      "max_pooling2d_29 (MaxPooling2D) (None, 3, 3, 768)    0           mixed7[0][0]                     \n",
      "__________________________________________________________________________________________________\n",
      "mixed8 (Concatenate)            (None, 3, 3, 1280)   0           activation_654[0][0]             \n",
      "                                                                 activation_658[0][0]             \n",
      "                                                                 max_pooling2d_29[0][0]           \n",
      "__________________________________________________________________________________________________\n",
      "conv2d_664 (Conv2D)             (None, 3, 3, 448)    573440      mixed8[0][0]                     \n",
      "__________________________________________________________________________________________________\n",
      "batch_normalization_664 (BatchN (None, 3, 3, 448)    1344        conv2d_664[0][0]                 \n",
      "__________________________________________________________________________________________________\n",
      "activation_663 (Activation)     (None, 3, 3, 448)    0           batch_normalization_664[0][0]    \n",
      "__________________________________________________________________________________________________\n",
      "conv2d_661 (Conv2D)             (None, 3, 3, 384)    491520      mixed8[0][0]                     \n",
      "__________________________________________________________________________________________________\n",
      "conv2d_665 (Conv2D)             (None, 3, 3, 384)    1548288     activation_663[0][0]             \n",
      "__________________________________________________________________________________________________\n",
      "batch_normalization_661 (BatchN (None, 3, 3, 384)    1152        conv2d_661[0][0]                 \n",
      "__________________________________________________________________________________________________\n",
      "batch_normalization_665 (BatchN (None, 3, 3, 384)    1152        conv2d_665[0][0]                 \n",
      "__________________________________________________________________________________________________\n",
      "activation_660 (Activation)     (None, 3, 3, 384)    0           batch_normalization_661[0][0]    \n",
      "__________________________________________________________________________________________________\n",
      "activation_664 (Activation)     (None, 3, 3, 384)    0           batch_normalization_665[0][0]    \n",
      "__________________________________________________________________________________________________\n",
      "conv2d_662 (Conv2D)             (None, 3, 3, 384)    442368      activation_660[0][0]             \n",
      "__________________________________________________________________________________________________\n",
      "conv2d_663 (Conv2D)             (None, 3, 3, 384)    442368      activation_660[0][0]             \n",
      "__________________________________________________________________________________________________\n",
      "conv2d_666 (Conv2D)             (None, 3, 3, 384)    442368      activation_664[0][0]             \n",
      "__________________________________________________________________________________________________\n",
      "conv2d_667 (Conv2D)             (None, 3, 3, 384)    442368      activation_664[0][0]             \n",
      "__________________________________________________________________________________________________\n",
      "average_pooling2d_63 (AveragePo (None, 3, 3, 1280)   0           mixed8[0][0]                     \n",
      "__________________________________________________________________________________________________\n",
      "conv2d_660 (Conv2D)             (None, 3, 3, 320)    409600      mixed8[0][0]                     \n",
      "__________________________________________________________________________________________________\n",
      "batch_normalization_662 (BatchN (None, 3, 3, 384)    1152        conv2d_662[0][0]                 \n",
      "__________________________________________________________________________________________________\n",
      "batch_normalization_663 (BatchN (None, 3, 3, 384)    1152        conv2d_663[0][0]                 \n",
      "__________________________________________________________________________________________________\n",
      "batch_normalization_666 (BatchN (None, 3, 3, 384)    1152        conv2d_666[0][0]                 \n",
      "__________________________________________________________________________________________________\n",
      "batch_normalization_667 (BatchN (None, 3, 3, 384)    1152        conv2d_667[0][0]                 \n",
      "__________________________________________________________________________________________________\n",
      "conv2d_668 (Conv2D)             (None, 3, 3, 192)    245760      average_pooling2d_63[0][0]       \n",
      "__________________________________________________________________________________________________\n",
      "batch_normalization_660 (BatchN (None, 3, 3, 320)    960         conv2d_660[0][0]                 \n",
      "__________________________________________________________________________________________________\n",
      "activation_661 (Activation)     (None, 3, 3, 384)    0           batch_normalization_662[0][0]    \n",
      "__________________________________________________________________________________________________\n",
      "activation_662 (Activation)     (None, 3, 3, 384)    0           batch_normalization_663[0][0]    \n",
      "__________________________________________________________________________________________________\n",
      "activation_665 (Activation)     (None, 3, 3, 384)    0           batch_normalization_666[0][0]    \n",
      "__________________________________________________________________________________________________\n",
      "activation_666 (Activation)     (None, 3, 3, 384)    0           batch_normalization_667[0][0]    \n",
      "__________________________________________________________________________________________________\n",
      "batch_normalization_668 (BatchN (None, 3, 3, 192)    576         conv2d_668[0][0]                 \n",
      "__________________________________________________________________________________________________\n",
      "activation_659 (Activation)     (None, 3, 3, 320)    0           batch_normalization_660[0][0]    \n",
      "__________________________________________________________________________________________________\n",
      "mixed9_0 (Concatenate)          (None, 3, 3, 768)    0           activation_661[0][0]             \n",
      "                                                                 activation_662[0][0]             \n",
      "__________________________________________________________________________________________________\n",
      "concatenate_12 (Concatenate)    (None, 3, 3, 768)    0           activation_665[0][0]             \n",
      "                                                                 activation_666[0][0]             \n",
      "__________________________________________________________________________________________________\n",
      "activation_667 (Activation)     (None, 3, 3, 192)    0           batch_normalization_668[0][0]    \n",
      "__________________________________________________________________________________________________\n",
      "mixed9 (Concatenate)            (None, 3, 3, 2048)   0           activation_659[0][0]             \n",
      "                                                                 mixed9_0[0][0]                   \n",
      "                                                                 concatenate_12[0][0]             \n",
      "                                                                 activation_667[0][0]             \n",
      "__________________________________________________________________________________________________\n",
      "conv2d_673 (Conv2D)             (None, 3, 3, 448)    917504      mixed9[0][0]                     \n",
      "__________________________________________________________________________________________________\n",
      "batch_normalization_673 (BatchN (None, 3, 3, 448)    1344        conv2d_673[0][0]                 \n",
      "__________________________________________________________________________________________________\n",
      "activation_672 (Activation)     (None, 3, 3, 448)    0           batch_normalization_673[0][0]    \n",
      "__________________________________________________________________________________________________\n",
      "conv2d_670 (Conv2D)             (None, 3, 3, 384)    786432      mixed9[0][0]                     \n",
      "__________________________________________________________________________________________________\n",
      "conv2d_674 (Conv2D)             (None, 3, 3, 384)    1548288     activation_672[0][0]             \n",
      "__________________________________________________________________________________________________\n",
      "batch_normalization_670 (BatchN (None, 3, 3, 384)    1152        conv2d_670[0][0]                 \n",
      "__________________________________________________________________________________________________\n",
      "batch_normalization_674 (BatchN (None, 3, 3, 384)    1152        conv2d_674[0][0]                 \n",
      "__________________________________________________________________________________________________\n",
      "activation_669 (Activation)     (None, 3, 3, 384)    0           batch_normalization_670[0][0]    \n",
      "__________________________________________________________________________________________________\n",
      "activation_673 (Activation)     (None, 3, 3, 384)    0           batch_normalization_674[0][0]    \n",
      "__________________________________________________________________________________________________\n",
      "conv2d_671 (Conv2D)             (None, 3, 3, 384)    442368      activation_669[0][0]             \n",
      "__________________________________________________________________________________________________\n",
      "conv2d_672 (Conv2D)             (None, 3, 3, 384)    442368      activation_669[0][0]             \n",
      "__________________________________________________________________________________________________\n",
      "conv2d_675 (Conv2D)             (None, 3, 3, 384)    442368      activation_673[0][0]             \n",
      "__________________________________________________________________________________________________\n",
      "conv2d_676 (Conv2D)             (None, 3, 3, 384)    442368      activation_673[0][0]             \n",
      "__________________________________________________________________________________________________\n",
      "average_pooling2d_64 (AveragePo (None, 3, 3, 2048)   0           mixed9[0][0]                     \n",
      "__________________________________________________________________________________________________\n",
      "conv2d_669 (Conv2D)             (None, 3, 3, 320)    655360      mixed9[0][0]                     \n",
      "__________________________________________________________________________________________________\n",
      "batch_normalization_671 (BatchN (None, 3, 3, 384)    1152        conv2d_671[0][0]                 \n",
      "__________________________________________________________________________________________________\n",
      "batch_normalization_672 (BatchN (None, 3, 3, 384)    1152        conv2d_672[0][0]                 \n",
      "__________________________________________________________________________________________________\n",
      "batch_normalization_675 (BatchN (None, 3, 3, 384)    1152        conv2d_675[0][0]                 \n",
      "__________________________________________________________________________________________________\n",
      "batch_normalization_676 (BatchN (None, 3, 3, 384)    1152        conv2d_676[0][0]                 \n",
      "__________________________________________________________________________________________________\n",
      "conv2d_677 (Conv2D)             (None, 3, 3, 192)    393216      average_pooling2d_64[0][0]       \n",
      "__________________________________________________________________________________________________\n",
      "batch_normalization_669 (BatchN (None, 3, 3, 320)    960         conv2d_669[0][0]                 \n",
      "__________________________________________________________________________________________________\n",
      "activation_670 (Activation)     (None, 3, 3, 384)    0           batch_normalization_671[0][0]    \n",
      "__________________________________________________________________________________________________\n",
      "activation_671 (Activation)     (None, 3, 3, 384)    0           batch_normalization_672[0][0]    \n",
      "__________________________________________________________________________________________________\n",
      "activation_674 (Activation)     (None, 3, 3, 384)    0           batch_normalization_675[0][0]    \n",
      "__________________________________________________________________________________________________\n",
      "activation_675 (Activation)     (None, 3, 3, 384)    0           batch_normalization_676[0][0]    \n",
      "__________________________________________________________________________________________________\n",
      "batch_normalization_677 (BatchN (None, 3, 3, 192)    576         conv2d_677[0][0]                 \n",
      "__________________________________________________________________________________________________\n",
      "activation_668 (Activation)     (None, 3, 3, 320)    0           batch_normalization_669[0][0]    \n",
      "__________________________________________________________________________________________________\n",
      "mixed9_1 (Concatenate)          (None, 3, 3, 768)    0           activation_670[0][0]             \n",
      "                                                                 activation_671[0][0]             \n",
      "__________________________________________________________________________________________________\n",
      "concatenate_13 (Concatenate)    (None, 3, 3, 768)    0           activation_674[0][0]             \n",
      "                                                                 activation_675[0][0]             \n",
      "__________________________________________________________________________________________________\n",
      "activation_676 (Activation)     (None, 3, 3, 192)    0           batch_normalization_677[0][0]    \n",
      "__________________________________________________________________________________________________\n",
      "mixed10 (Concatenate)           (None, 3, 3, 2048)   0           activation_668[0][0]             \n",
      "                                                                 mixed9_1[0][0]                   \n",
      "                                                                 concatenate_13[0][0]             \n",
      "                                                                 activation_676[0][0]             \n",
      "==================================================================================================\n",
…
    "                                include_top = False,\n",
    "                                weights=None)\n",
    "# Your Code Here\n",
    "\n",
    "pre_trained_model.load_weights(local_weights_file)\n",
    "\n",
    "# Make all the layers in the pre-trained model non-trainable\n",
    "for layer in pre_trained_model.layers:\n",
    "    layer.trainable = False\n",
    "  # Your Code Here\n",
    "  \n",
    "# Print the model summary\n",
    "pre_trained_model.summary()\n",
    "\n",
    "# Expected Output is extremely large, but should end with:\n",
    "\n",
    "#batch_normalization_v1_281 (Bat (None, 3, 3, 192)    576         conv2d_281[0][0]                 \n",
    "#__________________________________________________________________________________________________\n",
    "#activation_273 (Activation)     (None, 3, 3, 320)    0           batch_normalization_v1_273[0][0] \n",
    "#__________________________________________________________________________________________________\n",
    "#mixed9_1 (Concatenate)          (None, 3, 3, 768)    0           activation_275[0][0]             \n",
    "#                                                                 activation_276[0][0]             \n",
    "#__________________________________________________________________________________________________\n",
    "#concatenate_5 (Concatenate)     (None, 3, 3, 768)    0           activation_279[0][0]             \n",
    "#                                                                 activation_280[0][0]             \n",
    "#__________________________________________________________________________________________________\n",
    "#activation_281 (Activation)     (None, 3, 3, 192)    0           batch_normalization_v1_281[0][0] \n",
    "#__________________________________________________________________________________________________\n",
    "#mixed10 (Concatenate)           (None, 3, 3, 2048)   0           activation_273[0][0]             \n",
    "#                                                                 mixed9_1[0][0]                   \n",
    "#                                                                 concatenate_5[0][0]              \n",
    "#                                                                 activation_281[0][0]             \n",
    "#==================================================================================================\n",
…
   "execution_count": 52,
   "metadata": {
    "colab": {},
    "colab_type": "code",
    "id": "BMXb913pbvFg"
   },
   "outputs": [
    {
     "name": "stdout",
     "output_type": "stream",
     "text": [
      "Model: \"model_1\"\n",
      "__________________________________________________________________________________________________\n",
      "Layer (type)                    Output Shape         Param #     Connected to                     \n",
      "==================================================================================================\n",
      "input_8 (InputLayer)            [(None, 150, 150, 3) 0                                            \n",
      "__________________________________________________________________________________________________\n",
      "conv2d_584 (Conv2D)             (None, 74, 74, 32)   864         input_8[0][0]                    \n",
      "__________________________________________________________________________________________________\n",
      "batch_normalization_584 (BatchN (None, 74, 74, 32)   96          conv2d_584[0][0]                 \n",
      "__________________________________________________________________________________________________\n",
      "activation_583 (Activation)     (None, 74, 74, 32)   0           batch_normalization_584[0][0]    \n",
      "__________________________________________________________________________________________________\n",
      "conv2d_585 (Conv2D)             (None, 72, 72, 32)   9216        activation_583[0][0]             \n",
      "__________________________________________________________________________________________________\n",
      "batch_normalization_585 (BatchN (None, 72, 72, 32)   96          conv2d_585[0][0]                 \n",
      "__________________________________________________________________________________________________\n",
      "activation_584 (Activation)     (None, 72, 72, 32)   0           batch_normalization_585[0][0]    \n",
      "__________________________________________________________________________________________________\n",
      "conv2d_586 (Conv2D)             (None, 72, 72, 64)   18432       activation_584[0][0]             \n",
      "__________________________________________________________________________________________________\n",
      "batch_normalization_586 (BatchN (None, 72, 72, 64)   192         conv2d_586[0][0]                 \n",
      "__________________________________________________________________________________________________\n",
      "activation_585 (Activation)     (None, 72, 72, 64)   0           batch_normalization_586[0][0]    \n",
      "__________________________________________________________________________________________________\n",
      "max_pooling2d_26 (MaxPooling2D) (None, 35, 35, 64)   0           activation_585[0][0]             \n",
      "__________________________________________________________________________________________________\n",
      "conv2d_587 (Conv2D)             (None, 35, 35, 80)   5120        max_pooling2d_26[0][0]           \n",
      "__________________________________________________________________________________________________\n",
      "batch_normalization_587 (BatchN (None, 35, 35, 80)   240         conv2d_587[0][0]                 \n",
      "__________________________________________________________________________________________________\n",
      "activation_586 (Activation)     (None, 35, 35, 80)   0           batch_normalization_587[0][0]    \n",
      "__________________________________________________________________________________________________\n",
      "conv2d_588 (Conv2D)             (None, 33, 33, 192)  138240      activation_586[0][0]             \n",
      "__________________________________________________________________________________________________\n",
      "batch_normalization_588 (BatchN (None, 33, 33, 192)  576         conv2d_588[0][0]                 \n",
      "__________________________________________________________________________________________________\n",
      "activation_587 (Activation)     (None, 33, 33, 192)  0           batch_normalization_588[0][0]    \n",
      "__________________________________________________________________________________________________\n",
      "max_pooling2d_27 (MaxPooling2D) (None, 16, 16, 192)  0           activation_587[0][0]             \n",
      "__________________________________________________________________________________________________\n",
      "conv2d_592 (Conv2D)             (None, 16, 16, 64)   12288       max_pooling2d_27[0][0]           \n",
      "__________________________________________________________________________________________________\n",
      "batch_normalization_592 (BatchN (None, 16, 16, 64)   192         conv2d_592[0][0]                 \n",
      "__________________________________________________________________________________________________\n",
      "activation_591 (Activation)     (None, 16, 16, 64)   0           batch_normalization_592[0][0]    \n",
      "__________________________________________________________________________________________________\n",
      "conv2d_590 (Conv2D)             (None, 16, 16, 48)   9216        max_pooling2d_27[0][0]           \n",
      "__________________________________________________________________________________________________\n",
      "conv2d_593 (Conv2D)             (None, 16, 16, 96)   55296       activation_591[0][0]             \n",
      "__________________________________________________________________________________________________\n",
      "batch_normalization_590 (BatchN (None, 16, 16, 48)   144         conv2d_590[0][0]                 \n",
      "__________________________________________________________________________________________________\n",
      "batch_normalization_593 (BatchN (None, 16, 16, 96)   288         conv2d_593[0][0]                 \n",
      "__________________________________________________________________________________________________\n",
      "activation_589 (Activation)     (None, 16, 16, 48)   0           batch_normalization_590[0][0]    \n",
      "__________________________________________________________________________________________________\n",
      "activation_592 (Activation)     (None, 16, 16, 96)   0           batch_normalization_593[0][0]    \n",
      "__________________________________________________________________________________________________\n",
      "average_pooling2d_56 (AveragePo (None, 16, 16, 192)  0           max_pooling2d_27[0][0]           \n",
      "__________________________________________________________________________________________________\n",
      "conv2d_589 (Conv2D)             (None, 16, 16, 64)   12288       max_pooling2d_27[0][0]           \n",
      "__________________________________________________________________________________________________\n",
      "conv2d_591 (Conv2D)             (None, 16, 16, 64)   76800       activation_589[0][0]             \n",
      "__________________________________________________________________________________________________\n",
      "conv2d_594 (Conv2D)             (None, 16, 16, 96)   82944       activation_592[0][0]             \n",
      "__________________________________________________________________________________________________\n",
      "conv2d_595 (Conv2D)             (None, 16, 16, 32)   6144        average_pooling2d_56[0][0]       \n",
      "__________________________________________________________________________________________________\n",
      "batch_normalization_589 (BatchN (None, 16, 16, 64)   192         conv2d_589[0][0]                 \n",
      "__________________________________________________________________________________________________\n",
      "batch_normalization_591 (BatchN (None, 16, 16, 64)   192         conv2d_591[0][0]                 \n",
      "__________________________________________________________________________________________________\n",
      "batch_normalization_594 (BatchN (None, 16, 16, 96)   288         conv2d_594[0][0]                 \n",
      "__________________________________________________________________________________________________\n",
      "batch_normalization_595 (BatchN (None, 16, 16, 32)   96          conv2d_595[0][0]                 \n",
      "__________________________________________________________________________________________________\n",
      "activation_588 (Activation)     (None, 16, 16, 64)   0           batch_normalization_589[0][0]    \n",
      "__________________________________________________________________________________________________\n",
      "activation_590 (Activation)     (None, 16, 16, 64)   0           batch_normalization_591[0][0]    \n",
      "__________________________________________________________________________________________________\n",
      "activation_593 (Activation)     (None, 16, 16, 96)   0           batch_normalization_594[0][0]    \n",
      "__________________________________________________________________________________________________\n",
      "activation_594 (Activation)     (None, 16, 16, 32)   0           batch_normalization_595[0][0]    \n",
      "__________________________________________________________________________________________________\n",
      "mixed0 (Concatenate)            (None, 16, 16, 256)  0           activation_588[0][0]             \n",
      "                                                                 activation_590[0][0]             \n",
      "                                                                 activation_593[0][0]             \n",
      "                                                                 activation_594[0][0]             \n",
      "__________________________________________________________________________________________________\n",
      "conv2d_599 (Conv2D)             (None, 16, 16, 64)   16384       mixed0[0][0]                     \n",
      "__________________________________________________________________________________________________\n",
      "batch_normalization_599 (BatchN (None, 16, 16, 64)   192         conv2d_599[0][0]                 \n",
      "__________________________________________________________________________________________________\n",
      "activation_598 (Activation)     (None, 16, 16, 64)   0           batch_normalization_599[0][0]    \n",
      "__________________________________________________________________________________________________\n",
      "conv2d_597 (Conv2D)             (None, 16, 16, 48)   12288       mixed0[0][0]                     \n",
      "__________________________________________________________________________________________________\n",
      "conv2d_600 (Conv2D)             (None, 16, 16, 96)   55296       activation_598[0][0]             \n",
      "__________________________________________________________________________________________________\n",
      "batch_normalization_597 (BatchN (None, 16, 16, 48)   144         conv2d_597[0][0]                 \n",
      "__________________________________________________________________________________________________\n",
      "batch_normalization_600 (BatchN (None, 16, 16, 96)   288         conv2d_600[0][0]                 \n",
      "__________________________________________________________________________________________________\n",
      "activation_596 (Activation)     (None, 16, 16, 48)   0           batch_normalization_597[0][0]    \n",
      "__________________________________________________________________________________________________\n",
      "activation_599 (Activation)     (None, 16, 16, 96)   0           batch_normalization_600[0][0]    \n",
      "__________________________________________________________________________________________________\n",
      "average_pooling2d_57 (AveragePo (None, 16, 16, 256)  0           mixed0[0][0]                     \n",
      "__________________________________________________________________________________________________\n",
      "conv2d_596 (Conv2D)             (None, 16, 16, 64)   16384       mixed0[0][0]                     \n",
      "__________________________________________________________________________________________________\n",
      "conv2d_598 (Conv2D)             (None, 16, 16, 64)   76800       activation_596[0][0]             \n",
      "__________________________________________________________________________________________________\n",
      "conv2d_601 (Conv2D)             (None, 16, 16, 96)   82944       activation_599[0][0]             \n",
      "__________________________________________________________________________________________________\n",
      "conv2d_602 (Conv2D)             (None, 16, 16, 64)   16384       average_pooling2d_57[0][0]       \n",
      "__________________________________________________________________________________________________\n",
      "batch_normalization_596 (BatchN (None, 16, 16, 64)   192         conv2d_596[0][0]                 \n",
      "__________________________________________________________________________________________________\n",
      "batch_normalization_598 (BatchN (None, 16, 16, 64)   192         conv2d_598[0][0]                 \n",
      "__________________________________________________________________________________________________\n",
      "batch_normalization_601 (BatchN (None, 16, 16, 96)   288         conv2d_601[0][0]                 \n",
      "__________________________________________________________________________________________________\n",
      "batch_normalization_602 (BatchN (None, 16, 16, 64)   192         conv2d_602[0][0]                 \n",
      "__________________________________________________________________________________________________\n",
      "activation_595 (Activation)     (None, 16, 16, 64)   0           batch_normalization_596[0][0]    \n",
      "__________________________________________________________________________________________________\n",
      "activation_597 (Activation)     (None, 16, 16, 64)   0           batch_normalization_598[0][0]    \n",
      "__________________________________________________________________________________________________\n",
      "activation_600 (Activation)     (None, 16, 16, 96)   0           batch_normalization_601[0][0]    \n",
      "__________________________________________________________________________________________________\n",
      "activation_601 (Activation)     (None, 16, 16, 64)   0           batch_normalization_602[0][0]    \n",
      "__________________________________________________________________________________________________\n",
      "mixed1 (Concatenate)            (None, 16, 16, 288)  0           activation_595[0][0]             \n",
      "                                                                 activation_597[0][0]             \n",
      "                                                                 activation_600[0][0]             \n",
      "                                                                 activation_601[0][0]             \n",
      "__________________________________________________________________________________________________\n",
      "conv2d_606 (Conv2D)             (None, 16, 16, 64)   18432       mixed1[0][0]                     \n",
      "__________________________________________________________________________________________________\n",
      "batch_normalization_606 (BatchN (None, 16, 16, 64)   192         conv2d_606[0][0]                 \n",
      "__________________________________________________________________________________________________\n",
      "activation_605 (Activation)     (None, 16, 16, 64)   0           batch_normalization_606[0][0]    \n",
      "__________________________________________________________________________________________________\n",
      "conv2d_604 (Conv2D)             (None, 16, 16, 48)   13824       mixed1[0][0]                     \n",
      "__________________________________________________________________________________________________\n",
      "conv2d_607 (Conv2D)             (None, 16, 16, 96)   55296       activation_605[0][0]             \n",
      "__________________________________________________________________________________________________\n",
      "batch_normalization_604 (BatchN (None, 16, 16, 48)   144         conv2d_604[0][0]                 \n",
      "__________________________________________________________________________________________________\n",
      "batch_normalization_607 (BatchN (None, 16, 16, 96)   288         conv2d_607[0][0]                 \n",
      "__________________________________________________________________________________________________\n",
      "activation_603 (Activation)     (None, 16, 16, 48)   0           batch_normalization_604[0][0]    \n",
      "__________________________________________________________________________________________________\n",
      "activation_606 (Activation)     (None, 16, 16, 96)   0           batch_normalization_607[0][0]    \n",
      "__________________________________________________________________________________________________\n",
      "average_pooling2d_58 (AveragePo (None, 16, 16, 288)  0           mixed1[0][0]                     \n",
      "__________________________________________________________________________________________________\n",
      "conv2d_603 (Conv2D)             (None, 16, 16, 64)   18432       mixed1[0][0]                     \n",
      "__________________________________________________________________________________________________\n",
      "conv2d_605 (Conv2D)             (None, 16, 16, 64)   76800       activation_603[0][0]             \n",
      "__________________________________________________________________________________________________\n",
      "conv2d_608 (Conv2D)             (None, 16, 16, 96)   82944       activation_606[0][0]             \n",
      "__________________________________________________________________________________________________\n",
      "conv2d_609 (Conv2D)             (None, 16, 16, 64)   18432       average_pooling2d_58[0][0]       \n",
      "__________________________________________________________________________________________________\n",
      "batch_normalization_603 (BatchN (None, 16, 16, 64)   192         conv2d_603[0][0]                 \n",
      "__________________________________________________________________________________________________\n",
      "batch_normalization_605 (BatchN (None, 16, 16, 64)   192         conv2d_605[0][0]                 \n",
      "__________________________________________________________________________________________________\n",
      "batch_normalization_608 (BatchN (None, 16, 16, 96)   288         conv2d_608[0][0]                 \n",
      "__________________________________________________________________________________________________\n",
      "batch_normalization_609 (BatchN (None, 16, 16, 64)   192         conv2d_609[0][0]                 \n",
      "__________________________________________________________________________________________________\n",
      "activation_602 (Activation)     (None, 16, 16, 64)   0           batch_normalization_603[0][0]    \n",
      "__________________________________________________________________________________________________\n",
      "activation_604 (Activation)     (None, 16, 16, 64)   0           batch_normalization_605[0][0]    \n",
      "__________________________________________________________________________________________________\n",
      "activation_607 (Activation)     (None, 16, 16, 96)   0           batch_normalization_608[0][0]    \n",
      "__________________________________________________________________________________________________\n",
      "activation_608 (Activation)     (None, 16, 16, 64)   0           batch_normalization_609[0][0]    \n",
      "__________________________________________________________________________________________________\n",
      "mixed2 (Concatenate)            (None, 16, 16, 288)  0           activation_602[0][0]             \n",
      "                                                                 activation_604[0][0]             \n",
      "                                                                 activation_607[0][0]             \n",
      "                                                                 activation_608[0][0]             \n",
      "__________________________________________________________________________________________________\n",
      "conv2d_611 (Conv2D)             (None, 16, 16, 64)   18432       mixed2[0][0]                     \n",
      "__________________________________________________________________________________________________\n",
      "batch_normalization_611 (BatchN (None, 16, 16, 64)   192         conv2d_611[0][0]                 \n",
      "__________________________________________________________________________________________________\n",
      "activation_610 (Activation)     (None, 16, 16, 64)   0           batch_normalization_611[0][0]    \n",
      "__________________________________________________________________________________________________\n",
      "conv2d_612 (Conv2D)             (None, 16, 16, 96)   55296       activation_610[0][0]             \n",
      "__________________________________________________________________________________________________\n",
      "batch_normalization_612 (BatchN (None, 16, 16, 96)   288         conv2d_612[0][0]                 \n",
      "__________________________________________________________________________________________________\n",
      "activation_611 (Activation)     (None, 16, 16, 96)   0           batch_normalization_612[0][0]    \n",
      "__________________________________________________________________________________________________\n",
      "conv2d_610 (Conv2D)             (None, 7, 7, 384)    995328      mixed2[0][0]                     \n",
      "__________________________________________________________________________________________________\n",
      "conv2d_613 (Conv2D)             (None, 7, 7, 96)     82944       activation_611[0][0]             \n",
      "__________________________________________________________________________________________________\n",
      "batch_normalization_610 (BatchN (None, 7, 7, 384)    1152        conv2d_610[0][0]                 \n",
      "__________________________________________________________________________________________________\n",
      "batch_normalization_613 (BatchN (None, 7, 7, 96)     288         conv2d_613[0][0]                 \n",
      "__________________________________________________________________________________________________\n",
      "activation_609 (Activation)     (None, 7, 7, 384)    0           batch_normalization_610[0][0]    \n",
      "__________________________________________________________________________________________________\n",
      "activation_612 (Activation)     (None, 7, 7, 96)     0           batch_normalization_613[0][0]    \n",
      "__________________________________________________________________________________________________\n",
      "max_pooling2d_28 (MaxPooling2D) (None, 7, 7, 288)    0           mixed2[0][0]                     \n",
      "__________________________________________________________________________________________________\n",
      "mixed3 (Concatenate)            (None, 7, 7, 768)    0           activation_609[0][0]             \n",
      "                                                                 activation_612[0][0]             \n",
      "                                                                 max_pooling2d_28[0][0]           \n",
      "__________________________________________________________________________________________________\n",
      "conv2d_618 (Conv2D)             (None, 7, 7, 128)    98304       mixed3[0][0]                     \n",
      "__________________________________________________________________________________________________\n",
      "batch_normalization_618 (BatchN (None, 7, 7, 128)    384         conv2d_618[0][0]                 \n",
      "__________________________________________________________________________________________________\n",
      "activation_617 (Activation)     (None, 7, 7, 128)    0           batch_normalization_618[0][0]    \n",
      "__________________________________________________________________________________________________\n",
      "conv2d_619 (Conv2D)             (None, 7, 7, 128)    114688      activation_617[0][0]             \n",
      "__________________________________________________________________________________________________\n",
      "batch_normalization_619 (BatchN (None, 7, 7, 128)    384         conv2d_619[0][0]                 \n",
      "__________________________________________________________________________________________________\n",
      "activation_618 (Activation)     (None, 7, 7, 128)    0           batch_normalization_619[0][0]    \n",
      "__________________________________________________________________________________________________\n",
      "conv2d_615 (Conv2D)             (None, 7, 7, 128)    98304       mixed3[0][0]                     \n",
      "__________________________________________________________________________________________________\n",
      "conv2d_620 (Conv2D)             (None, 7, 7, 128)    114688      activation_618[0][0]             \n",
      "__________________________________________________________________________________________________\n",
      "batch_normalization_615 (BatchN (None, 7, 7, 128)    384         conv2d_615[0][0]                 \n",
      "__________________________________________________________________________________________________\n",
      "batch_normalization_620 (BatchN (None, 7, 7, 128)    384         conv2d_620[0][0]                 \n",
      "__________________________________________________________________________________________________\n",
      "activation_614 (Activation)     (None, 7, 7, 128)    0           batch_normalization_615[0][0]    \n",
      "__________________________________________________________________________________________________\n",
      "activation_619 (Activation)     (None, 7, 7, 128)    0           batch_normalization_620[0][0]    \n",
      "__________________________________________________________________________________________________\n",
      "conv2d_616 (Conv2D)             (None, 7, 7, 128)    114688      activation_614[0][0]             \n",
      "__________________________________________________________________________________________________\n",
      "conv2d_621 (Conv2D)             (None, 7, 7, 128)    114688      activation_619[0][0]             \n",
      "__________________________________________________________________________________________________\n",
      "batch_normalization_616 (BatchN (None, 7, 7, 128)    384         conv2d_616[0][0]                 \n",
      "__________________________________________________________________________________________________\n",
      "batch_normalization_621 (BatchN (None, 7, 7, 128)    384         conv2d_621[0][0]                 \n",
      "__________________________________________________________________________________________________\n",
      "activation_615 (Activation)     (None, 7, 7, 128)    0           batch_normalization_616[0][0]    \n",
      "__________________________________________________________________________________________________\n",
      "activation_620 (Activation)     (None, 7, 7, 128)    0           batch_normalization_621[0][0]    \n",
      "__________________________________________________________________________________________________\n",
      "average_pooling2d_59 (AveragePo (None, 7, 7, 768)    0           mixed3[0][0]                     \n",
      "__________________________________________________________________________________________________\n",
      "conv2d_614 (Conv2D)             (None, 7, 7, 192)    147456      mixed3[0][0]                     \n",
      "__________________________________________________________________________________________________\n",
      "conv2d_617 (Conv2D)             (None, 7, 7, 192)    172032      activation_615[0][0]             \n",
      "__________________________________________________________________________________________________\n",
      "conv2d_622 (Conv2D)             (None, 7, 7, 192)    172032      activation_620[0][0]             \n",
      "__________________________________________________________________________________________________\n",
      "conv2d_623 (Conv2D)             (None, 7, 7, 192)    147456      average_pooling2d_59[0][0]       \n",
      "__________________________________________________________________________________________________\n",
      "batch_normalization_614 (BatchN (None, 7, 7, 192)    576         conv2d_614[0][0]                 \n",
      "__________________________________________________________________________________________________\n",
      "batch_normalization_617 (BatchN (None, 7, 7, 192)    576         conv2d_617[0][0]                 \n",
      "__________________________________________________________________________________________________\n",
      "batch_normalization_622 (BatchN (None, 7, 7, 192)    576         conv2d_622[0][0]                 \n",
      "__________________________________________________________________________________________________\n",
      "batch_normalization_623 (BatchN (None, 7, 7, 192)    576         conv2d_623[0][0]                 \n",
      "__________________________________________________________________________________________________\n",
      "activation_613 (Activation)     (None, 7, 7, 192)    0           batch_normalization_614[0][0]    \n",
      "__________________________________________________________________________________________________\n",
      "activation_616 (Activation)     (None, 7, 7, 192)    0           batch_normalization_617[0][0]    \n",
      "__________________________________________________________________________________________________\n",
      "activation_621 (Activation)     (None, 7, 7, 192)    0           batch_normalization_622[0][0]    \n",
      "__________________________________________________________________________________________________\n",
      "activation_622 (Activation)     (None, 7, 7, 192)    0           batch_normalization_623[0][0]    \n",
      "__________________________________________________________________________________________________\n",
      "mixed4 (Concatenate)            (None, 7, 7, 768)    0           activation_613[0][0]             \n",
      "                                                                 activation_616[0][0]             \n",
      "                                                                 activation_621[0][0]             \n",
      "                                                                 activation_622[0][0]             \n",
      "__________________________________________________________________________________________________\n",
      "conv2d_628 (Conv2D)             (None, 7, 7, 160)    122880      mixed4[0][0]                     \n",
      "__________________________________________________________________________________________________\n",
      "batch_normalization_628 (BatchN (None, 7, 7, 160)    480         conv2d_628[0][0]                 \n",
      "__________________________________________________________________________________________________\n",
      "activation_627 (Activation)     (None, 7, 7, 160)    0           batch_normalization_628[0][0]    \n",
      "__________________________________________________________________________________________________\n",
      "conv2d_629 (Conv2D)             (None, 7, 7, 160)    179200      activation_627[0][0]             \n",
      "__________________________________________________________________________________________________\n",
      "batch_normalization_629 (BatchN (None, 7, 7, 160)    480         conv2d_629[0][0]                 \n",
      "__________________________________________________________________________________________________\n",
      "activation_628 (Activation)     (None, 7, 7, 160)    0           batch_normalization_629[0][0]    \n",
      "__________________________________________________________________________________________________\n",
      "conv2d_625 (Conv2D)             (None, 7, 7, 160)    122880      mixed4[0][0]                     \n",
      "__________________________________________________________________________________________________\n",
      "conv2d_630 (Conv2D)             (None, 7, 7, 160)    179200      activation_628[0][0]             \n",
      "__________________________________________________________________________________________________\n",
      "batch_normalization_625 (BatchN (None, 7, 7, 160)    480         conv2d_625[0][0]                 \n",
      "__________________________________________________________________________________________________\n",
      "batch_normalization_630 (BatchN (None, 7, 7, 160)    480         conv2d_630[0][0]                 \n",
      "__________________________________________________________________________________________________\n",
      "activation_624 (Activation)     (None, 7, 7, 160)    0           batch_normalization_625[0][0]    \n",
      "__________________________________________________________________________________________________\n",
      "activation_629 (Activation)     (None, 7, 7, 160)    0           batch_normalization_630[0][0]    \n",
      "__________________________________________________________________________________________________\n",
      "conv2d_626 (Conv2D)             (None, 7, 7, 160)    179200      activation_624[0][0]             \n",
      "__________________________________________________________________________________________________\n",
      "conv2d_631 (Conv2D)             (None, 7, 7, 160)    179200      activation_629[0][0]             \n",
      "__________________________________________________________________________________________________\n",
      "batch_normalization_626 (BatchN (None, 7, 7, 160)    480         conv2d_626[0][0]                 \n",
      "__________________________________________________________________________________________________\n",
      "batch_normalization_631 (BatchN (None, 7, 7, 160)    480         conv2d_631[0][0]                 \n",
      "__________________________________________________________________________________________________\n",
      "activation_625 (Activation)     (None, 7, 7, 160)    0           batch_normalization_626[0][0]    \n",
      "__________________________________________________________________________________________________\n",
      "activation_630 (Activation)     (None, 7, 7, 160)    0           batch_normalization_631[0][0]    \n",
      "__________________________________________________________________________________________________\n",
      "average_pooling2d_60 (AveragePo (None, 7, 7, 768)    0           mixed4[0][0]                     \n",
      "__________________________________________________________________________________________________\n",
      "conv2d_624 (Conv2D)             (None, 7, 7, 192)    147456      mixed4[0][0]                     \n",
      "__________________________________________________________________________________________________\n",
      "conv2d_627 (Conv2D)             (None, 7, 7, 192)    215040      activation_625[0][0]             \n",
      "__________________________________________________________________________________________________\n",
      "conv2d_632 (Conv2D)             (None, 7, 7, 192)    215040      activation_630[0][0]             \n",
      "__________________________________________________________________________________________________\n",
      "conv2d_633 (Conv2D)             (None, 7, 7, 192)    147456      average_pooling2d_60[0][0]       \n",
      "__________________________________________________________________________________________________\n",
      "batch_normalization_624 (BatchN (None, 7, 7, 192)    576         conv2d_624[0][0]                 \n",
      "__________________________________________________________________________________________________\n",
      "batch_normalization_627 (BatchN (None, 7, 7, 192)    576         conv2d_627[0][0]                 \n",
      "__________________________________________________________________________________________________\n",
      "batch_normalization_632 (BatchN (None, 7, 7, 192)    576         conv2d_632[0][0]                 \n",
      "__________________________________________________________________________________________________\n",
      "batch_normalization_633 (BatchN (None, 7, 7, 192)    576         conv2d_633[0][0]                 \n",
      "__________________________________________________________________________________________________\n",
      "activation_623 (Activation)     (None, 7, 7, 192)    0           batch_normalization_624[0][0]    \n",
      "__________________________________________________________________________________________________\n",
      "activation_626 (Activation)     (None, 7, 7, 192)    0           batch_normalization_627[0][0]    \n",
      "__________________________________________________________________________________________________\n",
      "activation_631 (Activation)     (None, 7, 7, 192)    0           batch_normalization_632[0][0]    \n",
      "__________________________________________________________________________________________________\n",
      "activation_632 (Activation)     (None, 7, 7, 192)    0           batch_normalization_633[0][0]    \n",
      "__________________________________________________________________________________________________\n",
      "mixed5 (Concatenate)            (None, 7, 7, 768)    0           activation_623[0][0]             \n",
      "                                                                 activation_626[0][0]             \n",
      "                                                                 activation_631[0][0]             \n",
      "                                                                 activation_632[0][0]             \n",
      "__________________________________________________________________________________________________\n",
      "conv2d_638 (Conv2D)             (None, 7, 7, 160)    122880      mixed5[0][0]                     \n",
      "__________________________________________________________________________________________________\n",
      "batch_normalization_638 (BatchN (None, 7, 7, 160)    480         conv2d_638[0][0]                 \n",
      "__________________________________________________________________________________________________\n",
      "activation_637 (Activation)     (None, 7, 7, 160)    0           batch_normalization_638[0][0]    \n",
      "__________________________________________________________________________________________________\n",
      "conv2d_639 (Conv2D)             (None, 7, 7, 160)    179200      activation_637[0][0]             \n",
      "__________________________________________________________________________________________________\n",
      "batch_normalization_639 (BatchN (None, 7, 7, 160)    480         conv2d_639[0][0]                 \n",
      "__________________________________________________________________________________________________\n",
      "activation_638 (Activation)     (None, 7, 7, 160)    0           batch_normalization_639[0][0]    \n",
      "__________________________________________________________________________________________________\n",
      "conv2d_635 (Conv2D)             (None, 7, 7, 160)    122880      mixed5[0][0]                     \n",
      "__________________________________________________________________________________________________\n",
      "conv2d_640 (Conv2D)             (None, 7, 7, 160)    179200      activation_638[0][0]             \n",
      "__________________________________________________________________________________________________\n",
      "batch_normalization_635 (BatchN (None, 7, 7, 160)    480         conv2d_635[0][0]                 \n",
      "__________________________________________________________________________________________________\n",
      "batch_normalization_640 (BatchN (None, 7, 7, 160)    480         conv2d_640[0][0]                 \n",
      "__________________________________________________________________________________________________\n",
      "activation_634 (Activation)     (None, 7, 7, 160)    0           batch_normalization_635[0][0]    \n",
      "__________________________________________________________________________________________________\n",
      "activation_639 (Activation)     (None, 7, 7, 160)    0           batch_normalization_640[0][0]    \n",
      "__________________________________________________________________________________________________\n",
      "conv2d_636 (Conv2D)             (None, 7, 7, 160)    179200      activation_634[0][0]             \n",
      "__________________________________________________________________________________________________\n",
      "conv2d_641 (Conv2D)             (None, 7, 7, 160)    179200      activation_639[0][0]             \n",
      "__________________________________________________________________________________________________\n",
      "batch_normalization_636 (BatchN (None, 7, 7, 160)    480         conv2d_636[0][0]                 \n",
      "__________________________________________________________________________________________________\n",
      "batch_normalization_641 (BatchN (None, 7, 7, 160)    480         conv2d_641[0][0]                 \n",
      "__________________________________________________________________________________________________\n",
      "activation_635 (Activation)     (None, 7, 7, 160)    0           batch_normalization_636[0][0]    \n",
      "__________________________________________________________________________________________________\n",
      "activation_640 (Activation)     (None, 7, 7, 160)    0           batch_normalization_641[0][0]    \n",
      "__________________________________________________________________________________________________\n",
      "average_pooling2d_61 (AveragePo (None, 7, 7, 768)    0           mixed5[0][0]                     \n",
      "__________________________________________________________________________________________________\n",
      "conv2d_634 (Conv2D)             (None, 7, 7, 192)    147456      mixed5[0][0]                     \n",
      "__________________________________________________________________________________________________\n",
      "conv2d_637 (Conv2D)             (None, 7, 7, 192)    215040      activation_635[0][0]             \n",
      "__________________________________________________________________________________________________\n",
      "conv2d_642 (Conv2D)             (None, 7, 7, 192)    215040      activation_640[0][0]             \n",
      "__________________________________________________________________________________________________\n",
      "conv2d_643 (Conv2D)             (None, 7, 7, 192)    147456      average_pooling2d_61[0][0]       \n",
      "__________________________________________________________________________________________________\n",
      "batch_normalization_634 (BatchN (None, 7, 7, 192)    576         conv2d_634[0][0]                 \n",
      "__________________________________________________________________________________________________\n",
      "batch_normalization_637 (BatchN (None, 7, 7, 192)    576         conv2d_637[0][0]                 \n",
      "__________________________________________________________________________________________________\n",
      "batch_normalization_642 (BatchN (None, 7, 7, 192)    576         conv2d_642[0][0]                 \n",
      "__________________________________________________________________________________________________\n",
      "batch_normalization_643 (BatchN (None, 7, 7, 192)    576         conv2d_643[0][0]                 \n",
      "__________________________________________________________________________________________________\n",
      "activation_633 (Activation)     (None, 7, 7, 192)    0           batch_normalization_634[0][0]    \n",
      "__________________________________________________________________________________________________\n",
      "activation_636 (Activation)     (None, 7, 7, 192)    0           batch_normalization_637[0][0]    \n",
      "__________________________________________________________________________________________________\n",
      "activation_641 (Activation)     (None, 7, 7, 192)    0           batch_normalization_642[0][0]    \n",
      "__________________________________________________________________________________________________\n",
      "activation_642 (Activation)     (None, 7, 7, 192)    0           batch_normalization_643[0][0]    \n",
      "__________________________________________________________________________________________________\n",
      "mixed6 (Concatenate)            (None, 7, 7, 768)    0           activation_633[0][0]             \n",
      "                                                                 activation_636[0][0]             \n",
      "                                                                 activation_641[0][0]             \n",
      "                                                                 activation_642[0][0]             \n",
      "__________________________________________________________________________________________________\n",
      "conv2d_648 (Conv2D)             (None, 7, 7, 192)    147456      mixed6[0][0]                     \n",
      "__________________________________________________________________________________________________\n",
      "batch_normalization_648 (BatchN (None, 7, 7, 192)    576         conv2d_648[0][0]                 \n",
      "__________________________________________________________________________________________________\n",
      "activation_647 (Activation)     (None, 7, 7, 192)    0           batch_normalization_648[0][0]    \n",
      "__________________________________________________________________________________________________\n",
      "conv2d_649 (Conv2D)             (None, 7, 7, 192)    258048      activation_647[0][0]             \n",
      "__________________________________________________________________________________________________\n",
      "batch_normalization_649 (BatchN (None, 7, 7, 192)    576         conv2d_649[0][0]                 \n",
      "__________________________________________________________________________________________________\n",
      "activation_648 (Activation)     (None, 7, 7, 192)    0           batch_normalization_649[0][0]    \n",
      "__________________________________________________________________________________________________\n",
      "conv2d_645 (Conv2D)             (None, 7, 7, 192)    147456      mixed6[0][0]                     \n",
      "__________________________________________________________________________________________________\n",
      "conv2d_650 (Conv2D)             (None, 7, 7, 192)    258048      activation_648[0][0]             \n",
      "__________________________________________________________________________________________________\n",
      "batch_normalization_645 (BatchN (None, 7, 7, 192)    576         conv2d_645[0][0]                 \n",
      "__________________________________________________________________________________________________\n",
      "batch_normalization_650 (BatchN (None, 7, 7, 192)    576         conv2d_650[0][0]                 \n",
      "__________________________________________________________________________________________________\n",
      "activation_644 (Activation)     (None, 7, 7, 192)    0           batch_normalization_645[0][0]    \n",
      "__________________________________________________________________________________________________\n",
      "activation_649 (Activation)     (None, 7, 7, 192)    0           batch_normalization_650[0][0]    \n",
      "__________________________________________________________________________________________________\n",
      "conv2d_646 (Conv2D)             (None, 7, 7, 192)    258048      activation_644[0][0]             \n",
      "__________________________________________________________________________________________________\n",
      "conv2d_651 (Conv2D)             (None, 7, 7, 192)    258048      activation_649[0][0]             \n",
      "__________________________________________________________________________________________________\n",
      "batch_normalization_646 (BatchN (None, 7, 7, 192)    576         conv2d_646[0][0]                 \n",
      "__________________________________________________________________________________________________\n",
      "batch_normalization_651 (BatchN (None, 7, 7, 192)    576         conv2d_651[0][0]                 \n",
      "__________________________________________________________________________________________________\n",
      "activation_645 (Activation)     (None, 7, 7, 192)    0           batch_normalization_646[0][0]    \n",
      "__________________________________________________________________________________________________\n",
      "activation_650 (Activation)     (None, 7, 7, 192)    0           batch_normalization_651[0][0]    \n",
      "__________________________________________________________________________________________________\n",
      "average_pooling2d_62 (AveragePo (None, 7, 7, 768)    0           mixed6[0][0]                     \n",
      "__________________________________________________________________________________________________\n",
      "conv2d_644 (Conv2D)             (None, 7, 7, 192)    147456      mixed6[0][0]                     \n",
      "__________________________________________________________________________________________________\n",
      "conv2d_647 (Conv2D)             (None, 7, 7, 192)    258048      activation_645[0][0]             \n",
      "__________________________________________________________________________________________________\n",
      "conv2d_652 (Conv2D)             (None, 7, 7, 192)    258048      activation_650[0][0]             \n",
      "__________________________________________________________________________________________________\n",
      "conv2d_653 (Conv2D)             (None, 7, 7, 192)    147456      average_pooling2d_62[0][0]       \n",
      "__________________________________________________________________________________________________\n",
      "batch_normalization_644 (BatchN (None, 7, 7, 192)    576         conv2d_644[0][0]                 \n",
      "__________________________________________________________________________________________________\n",
      "batch_normalization_647 (BatchN (None, 7, 7, 192)    576         conv2d_647[0][0]                 \n",
      "__________________________________________________________________________________________________\n",
      "batch_normalization_652 (BatchN (None, 7, 7, 192)    576         conv2d_652[0][0]                 \n",
      "__________________________________________________________________________________________________\n",
      "batch_normalization_653 (BatchN (None, 7, 7, 192)    576         conv2d_653[0][0]                 \n",
      "__________________________________________________________________________________________________\n",
      "activation_643 (Activation)     (None, 7, 7, 192)    0           batch_normalization_644[0][0]    \n",
      "__________________________________________________________________________________________________\n",
      "activation_646 (Activation)     (None, 7, 7, 192)    0           batch_normalization_647[0][0]    \n",
      "__________________________________________________________________________________________________\n",
      "activation_651 (Activation)     (None, 7, 7, 192)    0           batch_normalization_652[0][0]    \n",
      "__________________________________________________________________________________________________\n",
      "activation_652 (Activation)     (None, 7, 7, 192)    0           batch_normalization_653[0][0]    \n",
      "__________________________________________________________________________________________________\n",
      "mixed7 (Concatenate)            (None, 7, 7, 768)    0           activation_643[0][0]             \n",
      "                                                                 activation_646[0][0]             \n",
      "                                                                 activation_651[0][0]             \n",
      "                                                                 activation_652[0][0]             \n",
      "__________________________________________________________________________________________________\n",
      "flatten_13 (Flatten)            (None, 37632)        0           mixed7[0][0]                     \n",
      "__________________________________________________________________________________________________\n",
      "dense_2 (Dense)                 (None, 1024)         38536192    flatten_13[0][0]                 \n",
      "__________________________________________________________________________________________________\n",
      "dropout_1 (Dropout)             (None, 1024)         0           dense_2[0][0]                    \n",
      "__________________________________________________________________________________________________\n",
      "dense_3 (Dense)                 (None, 1)            1025        dropout_1[0][0]                  \n",
      "==================================================================================================\n",
      "Total params: 47,512,481\n",
      "Trainable params: 38,537,217\n",
      "Non-trainable params: 8,975,264\n",
      "__________________________________________________________________________________________________\n"
     ]
    }
   ],
…
    "x = layers.Dense(1024,activation='relu')(x)\n",
    "# Add a dropout rate of 0.2\n",
    "x = layers.Dropout(0.2)(x)           \n",
    "# Add a final sigmoid layer for classification\n",
    "x = layers.Dense(1,activation='sigmoid')(x)      \n",
    "\n",
    "model = Model(pre_trained_model.input,x)\n",
    "\n",
    "model.compile(optimizer = RMSprop(lr=0.0001), \n",
    "              loss = 'binary_crossentropy',\n",
    "              metrics = ['acc'])\n",
    "\n",
    "model.summary()\n",
    "\n",
    "# Expected output will be large. Last few lines should be:\n",
    "\n",
    "# mixed7 (Concatenate)            (None, 7, 7, 768)    0           activation_248[0][0]             \n",
    "#                                                                  activation_251[0][0]             \n",
    "#                                                                  activation_256[0][0]             \n",
    "#                                                                  activation_257[0][0]             \n",
    "# __________________________________________________________________________________________________\n",
    "# flatten_4 (Flatten)             (None, 37632)        0           mixed7[0][0]                     \n",
    "# __________________________________________________________________________________________________\n",
    "# dense_8 (Dense)                 (None, 1024)         38536192    flatten_4[0][0]                  \n",
    "# __________________________________________________________________________________________________\n",
    "# dropout_4 (Dropout)             (None, 1024)         0           dense_8[0][0]                    \n",
    "# __________________________________________________________________________________________________\n",
    "# dense_9 (Dense)                 (None, 1)            1025        dropout_4[0][0]                  \n",
    "# ==================================================================================================\n",
    "# Total params: 47,512,481\n",
    "# Trainable params: 38,537,217\n",
    "# Non-trainable params: 8,975,264\n"
   ]
  },
  {
   "cell_type": "code",
   "execution_count": 53,
   "metadata": {
    "colab": {},
    "colab_type": "code",
    "id": "HrnL_IQ8knWA"
…
